best_model.pth (torch, 31669 bytes, 12 tensors)

gcn.bias f4 [16]
0	0xbc6ea8fb	-0.014566655
1	0xbc5dc4b7	-0.01353567
2	0x3a8aad2d	0.0010580175
3	0xbbd37bb7	-0.006453957
4	0x3b074192	0.0020638448
5	0x3b0aa913	0.0021157905
6	0xbc8fb246	-0.017541062
7	0x3c4191bc	0.011814531
8	0x3d0c08da	0.03418813
9	0xbb68f433	-0.0035545945
10	0xba782a28	-0.0009466731
11	0xbcc158c8	-0.023601905
12	0xbcd9ae6d	-0.02657243
13	0xbca0cf1a	-0.019630004
14	0xbd23069e	-0.039801233
15	0xbbaca1c4	-0.0052683074

gcn.lin.weight f4 [16, 4]
0	0x3ed45d50	0.41477442
1	0xbe34de1c	-0.17662853
2	0xbe4ad891	-0.19809176
3	0x3c5b41c6	0.013382381
4	0xbda74667	-0.08167725
5	0x3ef86672	0.4851566
6	0x3d263161	0.040574435
7	0x3e310a8f	0.17289184
8	0x3f006d04	0.50166345
9	0xbdaf39e9	-0.08555967
10	0xbcbd4760	-0.023105323
11	0x3ca452fa	0.020059098
12	0xb91b7df8	-0.00014828879
13	0x3ee04897	0.43805382
14	0xbeca9075	-0.39563337
15	0x3e16c57a	0.14723769
16	0xbdfcd67f	-0.123455994
17	0x3f0ca162	0.5493375
18	0xbda864c8	-0.082223475
19	0x3eccf439	0.40030077
20	0xbeecff4f	-0.46288535
21	0x3f0f463c	0.55966544
22	0x3f021c0e	0.5082406
23	0x3eb6b7fd	0.35687247
24	0x3eaedb84	0.34151852
25	0x3de3f97e	0.11131571
26	0xbe391462	-0.18074182
27	0xbe55ab04	-0.20866019
28	0xbebda1d1	-0.3703752
29	0x3e81b6c0	0.2533474
30	0x3e5c6a24	0.21524864
31	0x3ea0ec75	0.31430402
32	0xbc3b628c	-0.01143707
33	0x3eeacf84	0.45861447
34	0xbefe6b79	-0.4969137
35	0xbe821447	-0.25406095
36	0x3e3b6aae	0.18302414
37	0xbe985f19	-0.29760054
38	0xbe35acdf	-0.17741726
39	0x3e438d6f	0.19096921
40	0xbeeeadda	-0.46617013
41	0x3d74e378	0.059787244
42	0x3efcfafc	0.49410236
43	0x3ec481e7	0.38380358
44	0x3dffbc71	0.12487114
45	0xbeccc855	-0.3999659
46	0x3f0231ee	0.50857437
47	0x3ebc1e2c	0.3674177
48	0xbd6dc476	-0.058048688
49	0x3cc48318	0.023988292
50	0xbdc2add3	-0.095058106
51	0xbd08a577	-0.033360925
52	0x3eedb484	0.46426785
53	0xbd50f33e	-0.051013224
54	0x3ec9c857	0.3941066
55	0x3ec9962b	0.39372382
56	0xbece90ea	-0.40344936
57	0x3ed94069	0.42431954
58	0x3ed6d428	0.41958737
59	0x3e861f68	0.26195836
60	0xbe66924c	-0.22516745
61	0x3ee7d2fa	0.4527815
62	0x3e2bb7ec	0.1676938
63	0xbf0c6cda	-0.54853594

bn.weight f4 [16]
0	0x3f78919e	0.97097194
1	0x3f835852	1.0261328
2	0x3f835b42	1.0262225
3	0x3f813abd	1.009605
4	0x3f80d168	1.0063906
5	0x3f84164b	1.0319303
6	0x3f82f43e	1.0230787
7	0x3f71574d	0.94273835
8	0x3f75e113	0.9604656
9	0x3f84690e	1.034456
10	0x3f735728	0.95054865
11	0x3f81ef0a	1.0151074
12	0x3f6ef154	0.9333699
13	0x3f79864d	0.9747055
14	0x3f77feac	0.96872973
15	0x3f731351	0.9495135

bn.bias f4 [16]
0	0xbcf2ee30	-0.029654592
1	0x3cd5ac3b	0.026083102
2	0x3cc96297	0.024583144
3	0x3c1f4e7c	0.009723302
4	0x3ba637f1	0.0050725867
5	0x3d04551a	0.03230772
6	0x3cc7a47c	0.024370424
7	0xbd6e41c2	-0.05816818
8	0xbd1dde32	-0.03854198
9	0x3cab8f3f	0.020942328
10	0xbd4ee0ff	-0.05050754
11	0xbd297710	-0.041373312
12	0xbd8a1026	-0.06741361
13	0xbcc43bae	-0.023954239
14	0xbcfebde0	-0.031096399
15	0xbd811a67	-0.06303864

bn.running_mean f4 [16]
0	0xbc21b9a8	-0.009870924
1	0xbc227a8b	-0.009916912
2	0x3bd82854	0.0065966044
3	0xbb405f1a	-0.002935356
4	0x3bd1436d	0.0063862116
5	0x3a25c8cd	0.0006324172
6	0xbc45437b	-0.012040014
7	0x3c2afb6d	0.010435921
8	0x3d020de0	0.031751513
9	0x3b049456	0.0020230017
10	0x39f0518f	0.00045837133
11	0xbc94761b	-0.018122723
12	0xbca63503	-0.02028895
13	0xbc59d7ae	-0.013296051
14	0xbce1acd6	-0.027548235
15	0xbb619a8d	-0.0034424395

bn.running_var f4 [16]
0	0x3c725e28	0.014792956
1	0x3c72cccb	0.014819334
2	0x3c729eb5	0.0148083465
3	0x3c72ddac	0.0148233585
4	0x3c738e34	0.014865447
5	0x3c729261	0.014805407
6	0x3c72460f	0.014787211
7	0x3c724b28	0.014788426
8	0x3c724a2a	0.01478819
9	0x3c72393f	0.014784156
10	0x3c722e24	0.014781509
11	0x3c7246cb	0.014787386
12	0x3c7233f5	0.014782895
13	0x3c73a777	0.01487147
14	0x3c725b97	0.0147923445
15	0x3c728eb2	0.014804529

lstm.weight_ih_l0 f4 [128, 16]
0	0xbdffced0	-0.12490618
1	0x3d8d3fc6	0.068969294
2	0xbd3086e0	-0.043097377
3	0x3e0dcb44	0.13847071
4	0xbdfc1f1d	-0.12310622
5	0x3dbf3a08	0.093372405
6	0xbd1e80ea	-0.03869716
7	0x3daefd88	0.08544451
8	0xbbfa621e	-0.007641091
9	0x3d80b8f3	0.06285276
10	0xbe544970	-0.20731139
11	0x3e118dd4	0.1421426
12	0xbe3c5953	-0.1839345
13	0xbba5f5bf	-0.0050646956
14	0x3ddb1529	0.10697395
15	0x3dc71222	0.097202554
16	0x3bb61030	0.005556129
17	0x3dabd213	0.08389678
18	0x3e1ee370	0.15516448
19	0xbdca1eaa	-0.0986913
20	0xbd04f5f9	-0.03246114
21	0xbdcc6fc6	-0.099822566
22	0xbe15e31d	-0.14637418
23	0x3da3efd9	0.08004732
24	0xbc6d718e	-0.014492406
25	0x3dc5737a	0.09641166
26	0xbd3bd8ed	-0.045861173
27	0xbe1bc8c1	-0.152133
28	0xbc948703	-0.018130785
29	0xbe2620c4	-0.16223437
30	0x3d97ff1e	0.074217066
31	0x3cb03380	0.021508932
32	0x3b8633ad	0.0040955157
33	0xbe36265f	-0.17788075
34	0x3e2f016e	0.17090389
35	0xbe0fc7cf	-0.14041065
36	0xbe048994	-0.12943107
37	0xbdfb1387	-0.12259584
38	0xbe134147	-0.1438037
39	0xbe201764	-0.15633923
40	0x3cc8e19a	0.024521638
41	0xbd527d61	-0.051389102
42	0xbd8993d4	-0.06717649
43	0xbe0726d4	-0.13198406
44	0x380d1500	3.3636577e-05
45	0xbdff7ac3	-0.12474587
46	0xbe2605ce	-0.16213152
47	0xbdb03c5c	-0.08605263
48	0x3d1f97ce	0.03896313
49	0x3e0cdf40	0.13757038
50	0x3e0f6a64	0.14005429
51	0x3e1f88d4	0.1557954
52	0x3e07569b	0.13216631
53	0x3da4750e	0.08030139
54	0x3d223e77	0.039610352
55	0xbe523898	-0.20529401
56	0xbd62ccb2	-0.055370994
57	0xbdf550ba	-0.11978288
58	0x3e17428a	0.14771476
59	0x3c445078	0.011982076
60	0x3e40bc00	0.18821716
61	0xbd1dde3c	-0.038542017
62	0xbe2921a2	-0.16516736
63	0xbc156ab8	-0.009119682
64	0xbc8ebe95	-0.017424861
65	0xbc762c07	-0.015025145
66	0xbdb14cb9	-0.08657212
67	0x3dc0bb44	0.09410718
68	0xbc44e220	-0.012016803
69	0x3d8fff6e	0.07031141
70	0x3d8dd1e1	0.06924797
71	0x3e3033dd	0.17207284
72	0x3d7da735	0.06192704
73	0xbd3136b3	-0.043265056
74	0x3c22ab21	0.009928496
75	0x3db36788	0.087599814
76	0x3dbc73d3	0.09201779
77	0xbe1f7b4b	-0.15574376
78	0xbdbcc81b	-0.092178546
79	0x3db0673c	0.086134404
80	0x3e0b366d	0.1359498
81	0xbd94df45	-0.07269148
82	0xbd7a34aa	-0.06108538
83	0xbe073835	-0.13205035
84	0xbde7ac73	-0.11312189
85	0xbd0a9981	-0.0338378
86	0x3e29409a	0.1652855
87	0x3dd46378	0.10370535
88	0xbe29820a	-0.16553512
89	0x3e185ffe	0.14880368
90	0x3d3f8924	0.046761647
91	0xbe2083e1	-0.15675308
92	0xbd6b2aff	-0.05741405
93	0x3e0f1eb4	0.13976556
94	0x3de0ac7e	0.109704
95	0x3d9e2146	0.0772119
96	0x3e30ae8f	0.17254089
97	0xbe07c37f	-0.1325817
98	0x3d99f3c4	0.07517198
99	0xbdecf82a	-0.11570771
100	0x3d916b95	0.07100598
101	0xbe38d07f	-0.18048285
102	0x3c1e82c4	0.009674732
103	0x3dc2b9d0	0.09508097
104	0xbdb7aebc	-0.08968875
105	0xbe2beb33	-0.1678894
106	0xbe310711	-0.17287852
107	0xbdf3b72a	-0.1190017
108	0x3d2fb564	0.042897597
109	0xbe39fd28	-0.18162978
110	0x3d662a50	0.056192696
111	0xbd0452d2	-0.032305546
112	0xbdd6d7e3	-0.10490396
113	0xbe1fb533	-0.15596466
114	0x3d6273b2	0.055286117
115	0xbe20f0fd	-0.1571693
116	0xbdcd14ce	-0.10013734
117	0xbd3f88b8	-0.046761245
118	0xbe2ef569	-0.17085804
119	0x3dc2df48	0.09515244
120	0x3c6fc90a	0.014635334
121	0x3d2136b7	0.03935882
122	0x3d4c5701	0.04988766
123	0x3d4b1a50	0.04958564
124	0xbe15981e	-0.1460881
125	0xbd9edd30	-0.07757032
126	0xbdac04a1	-0.083993204
127	0x3e1b9463	0.15193324
128	0xbe04e0ce	-0.12976381
129	0xbe5faaf2	-0.21842554
130	0x3db61b41	0.08891917
131	0xbde0df71	-0.10980118
132	0x3c98ef6f	0.018668858
133	0x3c42c1d0	0.011887029
134	0xbd735e13	-0.059415888
135	0xbe3851c5	-0.17999943
136	0xbdbe0d12	-0.09279837
137	0xbd9fdc5e	-0.078057036
138	0x3c692564	0.014230106
139	0x3d4ae081	0.04953051
140	0x3d855e9c	0.06512186
141	0xbe5f0dd4	-0.21782619
142	0xbdfa8b96	-0.12233655
143	0x3d2e0f4f	0.04249507
144	0x3d4ea452	0.050449677
145	0xbe18ac3f	-0.14909457
146	0xbe33198f	-0.17490219
147	0x3c9e2329	0.019303875
148	0x3c918c36	0.017767053
149	0x3e2e9d7c	0.17052263
150	0x3e07e15e	0.13269565
151	0x3e159370	0.14607024
152	0x3e0431bf	0.12909602
153	0x3dfcbe57	0.12340992
154	0x3d76dd1f	0.06026947
155	0x3e4c9929	0.19980301
156	0x3e053db0	0.13011813
157	0x3e3e84f4	0.18605405
158	0xbdce899f	-0.10084843
159	0x3e476c87	0.19474994
160	0x3bbbca77	0.005730923
161	0xbd9a2cec	-0.075280994
162	0xbcbb0bdb	-0.022832802
163	0xbc86d4bc	-0.016458862
164	0xbdf680ed	-0.120363094
165	0xbe1a8825	-0.15090998
166	0x3e017ae9	0.12644543
167	0x3d1e5f7c	0.03866528
168	0xbe087392	-0.13325337
169	0x3e176a23	0.14786582
170	0xbd0a1bef	-0.033718046
171	0xbbdcf10f	-0.0067426036
172	0x3dec8e27	0.11550551
173	0xbd877331	-0.06613768
174	0x3d2f4908	0.042794257
175	0xbe1caf23	-0.15301184
176	0xbde92c3f	-0.113853924
177	0xbd8c700a	-0.06857307
178	0x3ced3b63	0.028958982
179	0x3d9cb5d4	0.076518685
180	0x3df1b0e5	0.11801318
181	0xbdfc3c64	-0.12316206
182	0xbd8a37ed	-0.06748948
183	0xbc1db3c4	-0.009625379
184	0xbde3641b	-0.11103078
185	0xbbc72f7d	-0.006078659
186	0x3c811eeb	0.015761813
187	0xbd9d82c7	-0.076909594
188	0x3df93d0d	0.12169848
189	0xbd499f7c	-0.04922436
190	0xbd30d925	-0.043175835
191	0xbd65f154	-0.05613835
192	0xbdfe2661	-0.12409664
193	0xbe2a5b21	-0.16636325
194	0x3e03cd77	0.12871347
195	0x3dc8cf71	0.09805191
196	0xbe0c5cfb	-0.13707344
197	0x3b23e67a	0.00250092
198	0xbd8c7480	-0.06858158
199	0xbdd65df7	-0.10467141
200	0xbd90e06a	-0.070740536
201	0x3dbd4aa3	0.092427514
202	0xbe2f2000	-0.17102051
203	0xbd6fbc05	-0.05852892
204	0xbda0628f	-0.078312986
205	0xbe154488	-0.14576924
206	0x3b23b529	0.0024979806
207	0xbe06ba8c	-0.131571
208	0xbe5333a3	-0.20625167
209	0x3df6be9c	0.120480746
210	0x3e00ac50	0.12565732
211	0xb9efdc20	-0.00045749638
212	0x3d83de2b	0.064388596
213	0x3de1b780	0.11021328
214	0xbe59bcb0	-0.21263385
215	0x3e068bc1	0.1313925
216	0x3d7b264e	0.061315827
217	0xbdf88837	-0.12135356
218	0x3dc0c222	0.09412028
219	0xbe0abf83	-0.13549618
220	0xbd9d1d1a	-0.07671566
221	0xbe56162e	-0.20906898
222	0x3d0d387d	0.0344777
223	0xbd826ea6	-0.06368761
224	0xbcb3e4ba	-0.021959651
225	0x3db388b6	0.0876631
226	0x3e40d3bb	0.18830769
227	0xbe2d965a	-0.16951886
228	0x3c978a39	0.018498527
229	0x3de023bc	0.10944316
230	0x3d9950a9	0.07486088
231	0x3d88631e	0.0665953
232	0x3d97193f	0.07377862
233	0x3d269626	0.040670536
234	0xbcd8d06a	-0.026466567
235	0x3e1435a6	0.1447359
236	0x3d3ac9d6	0.045602642
237	0xbdcaa60b	-0.098949514
238	0x3d0ced92	0.034406252
239	0xbe351746	-0.1768466
240	0xbe2319c8	-0.15927804
241	0xbe385a67	-0.18003236
242	0xbe24de4d	-0.16100426
243	0x3dcf6642	0.10126926
244	0xbe443659	-0.19161357
245	0x3d320a6d	0.043466974
246	0x3e10019b	0.14063112
247	0xbdaad918	-0.083421886
248	0xbe281a42	-0.16416267
249	0xbe136727	-0.14394818
250	0x3da16950	0.07881415
251	0xbdb5ae68	-0.08871156
252	0xbe3b8957	-0.1831411
253	0x3c9c757e	0.019098993
254	0xbd505355	-0.05086072
255	0xbdc90cf3	-0.09816923

lstm.weight_hh_l0 f4 [128, 32]
0	0xbe525cf3	-0.2054327
1	0xbd5241fc	-0.05133246
2	0x3d1c3ea8	0.03814569
3	0xbd50d90a	-0.050988235
4	0x3e416dcc	0.1888954
5	0xbdaa8d93	-0.083277844
6	0x3e3ca7cb	0.18423383
7	0xbe5d539f	-0.2161393
8	0x3cd0008e	0.02539089
9	0xbe61b14a	-0.22040287
10	0xbdf78156	-0.12085216
11	0xbe460c16	-0.19340548
12	0xbd5c6d5c	-0.05381523
13	0x3dae5ec4	0.08514169
14	0xbe34737d	-0.1762218
15	0xbd4b522d	-0.049638916
16	0x3e045d4d	0.12926216
17	0xbd9067b9	-0.070510335
18	0xbd3c7f56	-0.046019875
19	0x3dc31259	0.09524984
20	0x3ded43ee	0.11585222
21	0xbd77e6bb	-0.060522776
22	0xbc7ace2a	-0.015307942
23	0xbdc20751	-0.09474052
24	0xbdec95ad	-0.11551986
25	0xbcabd85e	-0.020977195
26	0x3dd3cb70	0.10341537
27	0x3d41b468	0.04729119
28	0x3c1f64d4	0.009728629
29	0xbd1ba268	-0.03799668
30	0xbe34b643	-0.17647652
31	0xbcc40ded	-0.023932422
32	0x3e412bac	0.18864316
33	0x3da6bbe1	0.08141304
34	0x3e0b621f	0.13611649
35	0xbdfd3997	-0.123645
36	0xbd6f1d7b	-0.058377724
37	0x3e457f04	0.19286734
38	0xbcde2b60	-0.027120292
39	0x3df192df	0.117955916
40	0x3e5976a0	0.21236658
41	0x3e1d7db2	0.1537998
42	0xbcbffb7d	-0.023435349
43	0xbd9b22b1	-0.07574976
44	0x3bcf0f5c	0.0063189697
45	0x3dbe1c44	0.09282735
46	0xbd97bee8	-0.07409459
47	0xbe39e255	-0.18152745
48	0xbdc74254	-0.09729448
49	0x3941de80	0.00018488802
50	0x3e34a71e	0.17641875
51	0x3e079d8a	0.1324369
52	0xbd7ab42e	-0.06120699
53	0x3d395e12	0.045255728
54	0x3dcba7a8	0.09944087
55	0x3e132124	0.14368111
56	0x3daba599	0.083811946
57	0xbc6f12d6	-0.014591893
58	0x3dc15937	0.094408445
59	0x3de14a42	0.11000492
60	0xbd3eb6f3	-0.046561193
61	0xbe3ceec2	-0.18450454
62	0xbe084c9b	-0.13310473
63	0x3dfd0d45	0.123560466
64	0xbdc18cf2	-0.09450711
65	0x3d10f44f	0.03538924
66	0xbe49458c	-0.19655436
67	0xbe0fef48	-0.14056122
68	0xbe166b8c	-0.14689463
69	0xbd3b577c	-0.04573773
70	0xbb6e8806	-0.0036396994
71	0x3df38869	0.118912525
72	0x3df4858f	0.11939537
73	0xbd40e1fd	-0.04709052
74	0x3df4551b	0.11930295
75	0xbbf36382	-0.0074276337
76	0xbdc82f77	-0.09774678
77	0x3d997580	0.074931145
78	0x3caa7922	0.020809714
79	0x3e151be6	0.14561424
80	0xbe084c29	-0.13310303
81	0x3e38bc89	0.1804067
82	0xbde08c4b	-0.10964259
83	0x3d08e56e	0.033421926
84	0xbd7681a5	-0.060182232
85	0xbd5ef847	-0.054435994
86	0xbe69b843	-0.22824197
87	0x3e47dd58	0.1951803
88	0xbdfb20d6	-0.12262122
89	0xbe0ce948	-0.13760865
90	0x3cd51cbc	0.026014678
91	0x3e055d09	0.13023771
92	0xbd7c189e	-0.061546914
93	0x3d736cc5	0.059429903
94	0x3dc1ce1f	0.094631426
95	0x3ced203c	0.028946035
96	0xbe089f4e	-0.1334202
97	0xbd8ec834	-0.069717795
98	0xbd82d8ea	-0.06389029
99	0xbd66585a	-0.056236602
100	0xbe2c28cd	-0.1681244
101	0x3dbee3b9	0.093207784
102	0xbdce6444	-0.10077718
103	0xbdebe2f0	-0.11517894
104	0x3e0007e9	0.12503017
105	0x3e2cdd8d	0.1688139
106	0xbddd6748	-0.10810715
107	0xbdb52814	-0.08845535
108	0x3a8648ec	0.0010245121
109	0x3d68d5ee	0.056844644
110	0x3d505925	0.050866265
111	0x3de65ae2	0.11247803
112	0xbdb240f0	-0.08703792
113	0x3e697628	0.2279898
114	0x3ddeced0	0.1087929
115	0xbdbab7ee	-0.09117113
116	0x3d5e9e2e	0.05435007
117	0xbd984ab8	-0.074361265
118	0xbd0ad485	-0.03389408
119	0x3d8698f9	0.06572146
120	0xbda9450d	-0.082651235
121	0xbd02c96b	-0.03193037
122	0xbe29e339	-0.16590585
123	0xbe1ee683	-0.1551762
124	0x3d2df39e	0.04246866
125	0xbe402093	-0.18762426
126	0x3e087ef9	0.13329686
127	0xbd9f2cd1	-0.0777222
128	0xbcd56bba	-0.026052345
129	0xbe045fb9	-0.1292714
130	0xbdf63812	-0.12022413
131	0x3e0b5f41	0.13610555
132	0xbe156491	-0.14589144
133	0xbd2245a9	-0.039617214
134	0xbd13e710	-0.03610903
135	0x3cfbb0fd	0.030724043
136	0xbd433a55	-0.04766305
137	0x3d1d808c	0.03845267
138	0xbe08d3ef	-0.13362096
139	0x3d980aff	0.07423972
140	0x3e06292b	0.13101642
141	0x3d0c2a05	0.03421976
142	0xbd3fdc10	-0.046840727
143	0x3db49d5d	0.08819077
144	0x3e4a87fc	0.19778436
145	0xbe43d2be	-0.1912336
146	0xbe3d4d99	-0.18486632
147	0xbdb6edb3	-0.08932056
148	0x3e053df3	0.13011913
149	0xbe0d0d68	-0.13774645
150	0x3c3299fd	0.0109009715
151	0x3c809f54	0.015700974
152	0xbdc5702d	-0.096405365
153	0xbdc49e1f	-0.09600472
154	0xbc57c4d0	-0.013169482
155	0x3e55b3ee	0.20869419
156	0x3d0e98f8	0.03481385
157	0xbdf5a7c1	-0.11994887
158	0xbdac388e	-0.084092245
159	0x3d86529f	0.065587275
160	0x3daffbe0	0.08592963
161	0xbbd05744	-0.006358059
162	0xbde0f624	-0.109844476
163	0x3e07c53b	0.13258831
164	0x3de10091	0.10986436
165	0x3e20d5b6	0.15706524
166	0x3d75fa79	0.060053322
167	0x3e0eb0ab	0.13934581
168	0xbd2e80ea	-0.04260341
169	0x3d697585	0.05699684
170	0xbcc69ab2	-0.024243686
171	0x3db7e607	0.08979421
172	0x3d7d408e	0.061829142
173	0x3bac2957	0.0052539515
174	0x3de95155	0.11392466
175	0x3d89ccc1	0.06728507
176	0x3b66477f	0.003513783
177	0xbdb65f08	-0.089048445
178	0xbe3f48da	-0.18680134
179	0xbdbb68c8	-0.09150845
180	0x3d9583bd	0.07300518
181	0xbbc463f2	-0.0059933597
182	0xbde1c994	-0.11024776
183	0x3c2de094	0.010612626
184	0x3db35911	0.087572224
185	0xbda7e50f	-0.08197986
186	0x3daf51a0	0.085604906
187	0xbd52086d	-0.051277567
188	0x3e246890	0.16055512
189	0x3d8f01b1	0.069827445
190	0x3d73f810	0.059562743
191	0x3e30df9a	0.17272797
192	0x3e15a003	0.14611821
193	0x3c13c228	0.009018458
194	0xbe5f7e13	-0.21825437
195	0x3db1a005	0.086730994
196	0xbd69b798	-0.057059854
197	0x3deda6a7	0.11604052
198	0xbd4a7c03	-0.049434673
199	0xbcc5aa04	-0.024128921
200	0x3d2c8e81	0.04212809
201	0x3d07bc40	0.033138514
202	0xbd9b8c9f	-0.07595181
203	0xbd88cf85	-0.06680206
204	0xbe2c9174	-0.16852361
205	0x3dd3fafb	0.10350605
206	0x3e10c94a	0.14139286
207	0x3e4e4a3e	0.20145509
208	0x3d55a610	0.052160323
209	0x3da00766	0.07813911
210	0x3d80f4be	0.06296681
211	0xbcfc7fdc	-0.030822687
212	0xbceffa76	-0.029294234
213	0xbe2ebedd	-0.17064996
214	0x3ddf8b47	0.10915237
215	0xbcd1a485	-0.025591144
216	0xbe0cca2d	-0.13748999
217	0xbd06662a	-0.032812275
218	0x3df923e1	0.121650465
219	0xbdd43e27	-0.10363417
220	0x3e170c3c	0.14750761
221	0x3e63bd17	0.22240101
222	0xbe5d648a	-0.21620384
223	0xbdf292b8	-0.11844391
224	0xbd389908	-0.045067817
225	0xbdffedce	-0.124965295
226	0x3d6c5d19	0.057705972
227	0x3c62d837	0.013845495
228	0x3c7fec36	0.015620282
229	0x3c624a97	0.013811729
230	0xbd00d51e	-0.031453244
231	0xbdbcf17b	-0.09225746
232	0xbd4e1ab8	-0.05031845
233	0x3d78befa	0.060729004
234	0x3e0fccbd	0.14042945
235	0xbd8eb344	-0.06967786
236	0x3d95a18a	0.07306202
237	0x3d4b1595	0.04958113
238	0x3cbbfed4	0.02294866
239	0xbd025336	-0.031817637
240	0x3bf9108f	0.007600851
241	0x3c8bc010	0.017059356
242	0x3e020ea3	0.12700896
243	0x3c76f3fe	0.015072821
244	0x3da0cce9	0.078515835
245	0xbe09a4dc	-0.13441795
246	0x3d219cbb	0.03945611
247	0x3e00d7ca	0.12582317
248	0xbde158fc	-0.110033005
249	0xbcb8c3eb	-0.022554358
250	0xbcd1f0f5	-0.025627593
251	0x3e02577a	0.12728682
252	0xbdaf3fdd	-0.08557103
253	0x3e0a1ae3	0.13486819
254	0x3e0e5910	0.13901162
255	0x3e18837a	0.14893904

lstm.bias_ih_l0 f4 [128]
0	0x3c994b18	0.018712565
1	0x3cfe483a	0.0310403
2	0xbd742e06	-0.059614204
3	0xbde4e0b1	-0.11175669
4	0xbd63e12c	-0.055634663
5	0x3d5093ee	0.050922327
6	0x3dd00065	0.10156325
7	0xbca39d0f	-0.019972352
8	0xbcd658ac	-0.026165329
9	0x3e327c38	0.17430198
10	0x3e07555e	0.13216159
11	0x3e2c30dd	0.16815515
12	0x3db8968e	0.09013091
13	0xbc46dfc5	-0.012138312
14	0xbe203ca7	-0.15648137
15	0xbe3fe421	-0.18739368
16	0xbccce25e	-0.025010284
17	0xbcff3eef	-0.031157939
18	0xbda9eee6	-0.082975194
19	0x3e15c78a	0.146269
20	0x3db124d6	0.08649604
21	0xbc4cc36d	-0.012497765
22	0xbe22ce5a	-0.1589903
23	0xbd3859b1	-0.04500741
24	0x3d65eb81	0.056132797
25	0xbe477ce7	-0.1948124
26	0xbc341b02	-0.010992767
27	0x3df067d4	0.11738554
28	0x3d7ae870	0.061256826
29	0xbdad7ba1	-0.08470846
30	0xbde6c716	-0.112684414
31	0xbe1f3370	-0.15546966
32	0xbdf1f582	-0.11814405
33	0xbdd72c36	-0.105064794
34	0xbc49bbe6	-0.012312865
35	0x3e1bed9c	0.1522736
36	0x3deff154	0.117159516
37	0xbe21496a	-0.15750661
38	0xbdd0797c	-0.10179421
39	0xbdd68ad0	-0.10475695
40	0xbe03695d	-0.12833162
41	0xbdb09bce	-0.086234674
42	0x3e13990d	0.14413853
43	0xbdec3e39	-0.115353055
44	0xbe382336	-0.17982182
45	0x3cd1b636	0.02559958
46	0xbe1d0ccc	-0.15336913
47	0xbd8ef4f3	-0.06980314
48	0xbd7a7476	-0.061146222
49	0xbd773bce	-0.06035977
50	0x3dd7d517	0.105386905
51	0xbd34c884	-0.04413654
52	0xbe399bc9	-0.18125834
53	0xbad3f576	-0.0016171176
54	0xbe3180de	-0.17334315
55	0x3d26f2e1	0.04075897
56	0xbdbb81be	-0.09155606
57	0xbd8cc066	-0.068726346
58	0x3dae9a27	0.08525496
59	0xbd25d294	-0.040484026
60	0xbca71641	-0.020396354
61	0xbc9753fb	-0.018472662
62	0xbe0d466f	-0.137964
63	0xbe2abc5b	-0.16673414
64	0xbdb9abfd	-0.09066007
65	0x3ca33a52	0.01992527
66	0x3e11d559	0.14241542
67	0x3e0246af	0.12722276
68	0x3cbca43c	0.023027532
69	0xbda4f673	-0.08054819
70	0x3cf4b64f	0.029872088
71	0xbd6678f7	-0.056267705
72	0x3ddedb90	0.10881722
73	0x3dda2a5f	0.10652613
74	0xbe2f75b0	-0.17134738
75	0x3ca2fc97	0.019895835
76	0xbd872888	-0.065995276
77	0x3d919d2a	0.07110055
78	0xbb83e0f2	-0.0040246183
79	0xbd7b58be	-0.061363928
80	0xbd9f98a1	-0.077927835
81	0x3ccceb38	0.025014505
82	0x3e12c3ee	0.14332554
83	0x3df11327	0.11771231
84	0x3e1e046d	0.15431376
85	0x3cdb7c64	0.026792713
86	0x3da8a201	0.08234025
87	0xbdfa79c6	-0.12230258
88	0x3d4d1f3e	0.050078623
89	0xbaa21138	-0.0012364751
90	0x3d826d04	0.06368449
91	0x3cbc059c	0.022951894
92	0xbd36c421	-0.044620637
93	0x3e0410a2	0.1289697
94	0x3dbd21c9	0.0923496
95	0x3df9c0e7	0.12194996
96	0xbe56b033	-0.20965652
97	0x3de28207	0.11059957
98	0x3b028ba2	0.0019919653
99	0xbd7b64b0	-0.06137532
100	0x3df914dd	0.121621825
101	0xbe2e69ea	-0.1703259
102	0xbe31fc45	-0.1738139
103	0xbe033b48	-0.12815583
104	0xbe28ae4d	-0.1647274
105	0xbdae3da6	-0.08507852
106	0xbdd52a74	-0.10408488
107	0x3d87f83c	0.06639144
108	0xbd7c560e	-0.061605506
109	0xbe37b711	-0.17940928
110	0xbdfbf32c	-0.12302241
111	0x3df52bb9	0.1197123
112	0xbd332c28	-0.043743283
113	0x3e0213a0	0.12702799
114	0xbd9131d8	-0.07089585
115	0x3db2ede2	0.08736779
116	0xbe22b821	-0.15890552
117	0xbdd8c50e	-0.1058446
118	0x3d79f6ef	0.06102651
119	0xbd42bf83	-0.04754592
120	0x3d92be39	0.07165188
121	0x3dd79aba	0.105275586
122	0xbe2391a3	-0.15973525
123	0x3d984403	0.07434847
124	0x3d2b45df	0.04181468
125	0xbc7f22a0	-0.01557222
126	0xbb9034c9	-0.0044008237
127	0xbe36a8d1	-0.17837836

lstm.bias_hh_l0 f4 [128]
0	0xbe2b86df	-0.16750668
1	0xbdb471a2	-0.08810736
2	0x3d30c802	0.043159492
3	0xbbd6d3cc	-0.00655601
4	0x3d563dea	0.05230514
5	0xbdfbeeb6	-0.1230139
6	0xbd05e1d1	-0.03268606
7	0xbe34d3d9	-0.17658938
8	0x3cb786c1	0.022403123
9	0x3e328195	0.17432244
10	0x3c7948c2	0.015215101
11	0x3e3e2cf2	0.18571833
12	0x3b98d028	0.004663486
13	0x3d8210c4	0.06350854
14	0xbd0e04b2	-0.034672447
15	0xbd5a6deb	-0.053327482
16	0x3db161d4	0.08661237
17	0xbd6f2fed	-0.058395315
18	0xbdc6cfa8	-0.09707576
19	0x3c53f159	0.01293596
20	0xbe2e5a03	-0.17026524
21	0xbe45eabf	-0.1932783
22	0xbe2b4bf2	-0.1672819
23	0xbcd316c3	-0.02576769
24	0x3d9213be	0.07132672
25	0x3e02e7ff	0.12783812
26	0xbd28c53f	-0.041203734
27	0xbdace3db	-0.084418975
28	0x3b490a38	0.0030676257
29	0x3d68f21d	0.056871522
30	0xbe4537ee	-0.19259617
31	0xbcc47807	-0.023983015
32	0xbe38e553	-0.1805623
33	0xbe16c943	-0.14725213
34	0xbdede10d	-0.11615191
35	0xbd860a57	-0.06544941
36	0xbdf2a3f2	-0.11847676
37	0xbdf5769f	-0.11985516
38	0x3bec5424	0.007212179
39	0xbe5e8d44	-0.21733576
40	0x3decfd86	0.11571793
41	0x3d4661d1	0.04843313
42	0x3da81ddc	0.0820882
43	0xbd924a0d	-0.0714303
44	0xbc81e57f	-0.015856503
45	0xbd8fbc12	-0.070182934
46	0xbdf19447	-0.1179586
47	0xbe5e24cc	-0.21693724
48	0xbd832549	-0.06403596
49	0xbd92e93f	-0.071733944
50	0x3d32f092	0.043686457
51	0xbca8d187	-0.020607723
52	0x3e15f70c	0.14645022
53	0xbe1383be	-0.14405724
54	0x3c73a436	0.014870694
55	0xbdab27e9	-0.08357222
56	0x3cf9a48f	0.030473975
57	0xbd4dc65b	-0.050237995
58	0x3d8df943	0.069323085
59	0xbcf08a90	-0.029362947
60	0xbd232207	-0.039827373
61	0xbe037d9d	-0.12840886
62	0xbe06f698	-0.13180006
63	0xbc883285	-0.016625652
64	0x3e01972f	0.12655328
65	0x3df0c7ab	0.11756834
66	0x3d9e9e81	0.07745076
67	0x3d87031a	0.065923885
68	0xbd83db02	-0.06438257
69	0x3d58d554	0.05293782
70	0x3d176c32	0.036968417
71	0x3de28cf7	0.11062043
72	0xbe2754d8	-0.16340959
73	0x3d4d6096	0.05014094
74	0xbd087f82	-0.033324726
75	0x3d14e929	0.03635517
76	0x3d89ae7a	0.06722732
77	0xbe143ac9	-0.1447555
78	0xbd6d3cd1	-0.057919327
79	0xbb8ea59e	-0.004353239
80	0x3db71842	0.08940174
81	0xbd0842f4	-0.033266976
82	0xbd26ddcd	-0.04073887
83	0x3dfa4b63	0.1222141
84	0x3bf25bc9	0.0073961955
85	0xbc9294c6	-0.017893206
86	0xbd1ec010	-0.038757384
87	0xbe19c95f	-0.15018223
88	0x3d5707e6	0.052497767
89	0x3d19ff7c	0.037597165
90	0x3d10bdfb	0.03533743
91	0xbe083f2a	-0.13305345
92	0xbdc2b8f0	-0.0950793
93	0xbd2d06e1	-0.04224289
94	0xbc664861	-0.014055342
95	0xbe480ed6	-0.1953691
96	0xbdd0615f	-0.10174822
97	0xbda8b817	-0.08238237
98	0x3ddeef12	0.10885443
99	0x3bd198f3	0.006396407
100	0xbe4dcda4	-0.20097977
101	0xbccf5d4a	-0.025313038
102	0xbd434145	-0.047669668
103	0x3bf3986a	0.0074339407
104	0x3d45362d	0.04814737
105	0x3e0a69a2	0.13516858
106	0xbd56a8b8	-0.052406996
107	0x3db8c421	0.090217836
108	0x3d3918fc	0.045189843
109	0x3dad1c32	0.084526435
110	0x3e12d970	0.14340758
111	0xbe04149f	-0.12898491
112	0x3d8ce40f	0.06879436
113	0xbdca79ee	-0.098865375
114	0x3e1f0aa5	0.15531404
115	0x3e19053f	0.14943407
116	0xbcc4bc51	-0.024015578
117	0x3cff85f9	0.031191813
118	0xbd8accc9	-0.06777341
119	0xbd5ce4a7	-0.053928997
120	0xbd0af8ea	-0.03392879
121	0xbe52c13d	-0.20581527
122	0xbe49ae6f	-0.19695447
123	0x3cb268b1	0.021778436
124	0xbdf234ee	-0.11826502
125	0xbe28fa91	-0.16501833
126	0xbd546b34	-0.05186005
127	0x3dd10548	0.102060854

linear.weight f4 [4, 32]
0	0xbd9b9ba3	-0.07598045
1	0x3d7b23a4	0.061313286
2	0xbcd9e779	-0.026599633
3	0x3d8cefe1	0.06881691
4	0x3d842cd9	0.064538665
5	0xbd8ed57e	-0.06974314
6	0xbdd2efe6	-0.10299663
7	0x3d846e5e	0.06466363
8	0x3deda2cc	0.11603317
9	0xbd9aa4aa	-0.075509384
10	0x3da9d0e4	0.08291796
11	0x3dc927fa	0.09822078
12	0x3d146fa2	0.036239274
13	0xbc0eed7a	-0.008723611
14	0x3e01747a	0.12642089
15	0x3d3f995b	0.04677711
16	0x3e17a7eb	0.1481015
17	0x3ab8c020	0.0014095344
18	0x3d3b224e	0.045687012
19	0xbe03fe18	-0.12889898
20	0xbcf1e78a	-0.029529352
21	0x3d98cb23	0.0746062
22	0xbe26bcd2	-0.16282967
23	0xbc2c3ab0	-0.010512039
24	0xbda16264	-0.07880095
25	0xbdb54fd3	-0.08853116
26	0x3d7a865a	0.061163284
27	0xbd8dd1f1	-0.06924809
28	0xbc1840ec	-0.009292822
29	0x3d6af193	0.05735929
30	0x3defbb6d	0.117056705
31	0xbcd49167	-0.02594824
32	0x3d063ff4	0.032775834
33	0x3d9161d3	0.070987366
34	0xbb55aad1	-0.0032603035
35	0xbd732412	-0.05936057
36	0x3e314b77	0.17313944
37	0x3de37573	0.11106386
38	0x3df6010d	0.12011919
39	0xbe163183	-0.14667325
40	0xbd45155b	-0.04811607
41	0x3d80a0bf	0.0628066
42	0x3e425bb4	0.18980294
43	0x39a9cc2c	0.00032386312
44	0xbd891b26	-0.06694631
45	0xbda9ae77	-0.0828523
46	0xbe04c8ff	-0.12967299
47	0xbd462995	-0.0483795
48	0xbbddf796	-0.0067738993
49	0xbe3da186	-0.18518648
50	0x3ddbb973	0.10728731
51	0xbe268679	-0.16262235
52	0xbe0a4e51	-0.13506438
53	0xbc2f87b4	-0.0107135065
54	0x3d1e85d0	0.038701832
55	0x3e0a3fac	0.13500851
56	0xbc6aefce	-0.0143394
57	0x3e35875b	0.17727415
58	0x3e26f1e0	0.16303205
59	0x3dc0b5a1	0.09409643
60	0xbdd2324b	-0.10263499
61	0x3d81d805	0.063400306
62	0xbc8c6ac3	-0.017140752
63	0x3e0d686e	0.13809368
64	0x3c7793f7	0.015110961
65	0xbe3afa7d	-0.18259616
66	0x3d059f11	0.0326224
67	0xbdf18ea1	-0.117947824
68	0xbc0386c8	-0.00802774
69	0x3c3d2bea	0.011546114
70	0xbbf95c70	-0.0076098964
71	0x3b227224	0.0024787271
72	0x3d2ab62c	0.04167764
73	0xbddaabb7	-0.10677283
74	0x3c840e11	0.016119989
75	0xbe085837	-0.13314901
76	0x3dcfd352	0.10147728
77	0x3e18105a	0.14849988
78	0x3dd5c330	0.1043762
79	0x3cb14798	0.021640584
80	0xbd54c781	-0.051948074
81	0x3d013a7c	0.031549916
82	0xbdcd39a5	-0.100207604
83	0x3cf273c2	0.029596213
84	0xbda2e423	-0.0795367
85	0xbd965a85	-0.07341484
86	0xbc9ef356	-0.019403141
87	0x3dc8bb70	0.09801376
88	0x3c8b90d6	0.017036837
89	0x3d14fe17	0.03637513
90	0xbd66d2a9	-0.056353245
91	0x3d6ed409	0.05830768
92	0x3e441a69	0.191507
93	0xbcfb43d2	-0.030671988
94	0xbd8a51d8	-0.06753892
95	0x3d8c519d	0.06851504
96	0x3dcee00a	0.10101326
97	0xbe19402a	-0.14965883
98	0xbe4678ae	-0.19381973
99	0xbda6c55f	-0.08143114
100	0xbdacd404	-0.08438876
101	0xbe0eeaf8	-0.13956821
102	0xbd7f7be6	-0.062374018
103	0x3d382f2f	0.044966873
104	0x3df21edb	0.118222915
105	0x3cc3832c	0.023866259
106	0x3b81dc81	0.0039630537
107	0xbe04fe6f	-0.12987684
108	0xbdff0b12	-0.12453283
109	0x3c535dd2	0.0129007865
110	0xbe57055e	-0.20998141
111	0xbdcc5130	-0.09976423
112	0x3d37e912	0.044900008
113	0xbcb8c8a7	-0.022556616
114	0xbe1c5f7b	-0.15270798
115	0xbd91f7f2	-0.0712737
116	0x3dd9452a	0.10608895
117	0xbdd04743	-0.10169842
118	0x3c223440	0.009900153
119	0x3e0bd565	0.13655622
120	0x3ce87609	0.028376596
121	0xbdbf5193	-0.09341731
122	0xbd8b1b42	-0.067923084
123	0xbdd67c54	-0.104729325
124	0xbd4450cb	-0.047928613
125	0x3d863f63	0.06555059
126	0xbd2e1583	-0.042500984
127	0x3b92bb8c	0.0044779237

linear.bias f4 [4]
0	0x3ca006c9	0.019534485
1	0x3d130cea	0.035900988
2	0x3da4bb18	0.08043498
3	0x3d92e0c1	0.07171775
