model.pth (torch, 28977 bytes, 7 tensors)

gcn.bias f4 [16]
00000000: 7008 18bb 4dca d8bc 5a8f b9bc 1865 d73b
00000010: 56a1 8bba 05e8 d8bb 6ff6 10bc a8c4 86bc
00000020: 9fc1 0f3c 5699 be3c 10bd c83b 9030 933c
00000030: f867 bcbb f5bc 033d 5476 6e3b e69f f8bc
-0.0023198389 -0.026463652 -0.022651363 0.0065733306 -0.001065294 -0.0066194558 -0.008847817 -0.016451195
0.00877419 0.023266476 0.0061260536 0.017967492 -0.0057496987 0.032162625 0.0036386447 -0.030349683

gcn.lin.weight f4 [16, 1]
00000000: 9af6 373e e25e 6b3e 1013 4b3e 4372 3dbe
00000010: aa56 e23e 1c27 db3e 91e9 093e 7608 de3e
00000020: b863 0e3f 0823 abbd 3545 6dbd 4ea6 ddbe
00000030: 8506 073f 6a6c c7bd 0468 74be f025 e63e
0.17965165 0.22985414 0.1983149 -0.18500619 0.44206744 0.42803276 0.13468005 0.4336583
0.5562091 -0.08356291 -0.05792733 -0.43290943 0.52744323 -0.09737475 -0.23867804 0.4495082

lstm.weight_ih_l0 f4 [128, 16]
00000000: 68fe 93bc a912 3cbe 7388 4e3e 0ec2 6bbe
00000010: 4d79 18be 7593 03bd 0ea9 c0bd 38ec a83d
00000020: 2f73 f03c 7886 81be fde2 543e 0f50 1bbe
00000030: 7d21 043e 50ea 32bc 5c49 363e 08ad 223e
00000040: ea55 14be 930f 603e 774a 09bd 1cf8 d4bd
00000050: 26d1 b3bd c179 d73d a740 63bd d300 ffba
00000060: 7852 1bbe 95a3 d13b f1fb ecbc 193d fe3b
00000070: af11 26be 0202 42bd c5a9 de3b aa39 c0bd
00000080: 18f7 563e e076 d3bc 56c0 aa3d 9d3c 18be
00000090: 7ecb 17be 1736 1e3c cfef 463b bf9b 6b3e
000000a0: e296 f93b 513a 21be 73a6 fb3d 526b 743d
000000b0: fd4b 383e 351f 573d 82f9 15bc 4787 8fbd
000000c0: 1b22 35bb 1d54 98bc 68c7 9a3d 4e55 233c
000000d0: 688a 50bd 3776 6b3e 29aa 11be 2042 2c3e
000000e0: 0c34 753e fe25 b1bd b041 fc3d dc65 b93d
000000f0: 2e50 a7bc 6e6e 32be 0269 a5bd d18b 093e
00000100: 63fb d93d 605b 6c3d 5756 5e3e b3e4 4dbd
00000110: 1acf a6bc 47ee a33e 1ae2 20bd a553 913e
00000120: efa6 26bc 1656 cabd c16a 293e 171f 95be
00000130: bfee 293e 3dcd 66be 0553 703d 960c aa3d
00000140: f1f2 b43d 4ca6 eebd 6338 a23d aaec a6bd
00000150: 746f 30be 82b0 8f3d 3b3e aa3c 3420 afba
00000160: e499 ecbc b6f3 bc3d 5be8 69bd 44bb 93bd
00000170: d5b0 2d3e 7ab2 1bbd 4342 3ebd 4343 ffbd
00000180: e450 a73d d751 1cbe 3cfa a0bd ccc2 bebd
00000190: 2e7f 20be 74cb fb3d 379d 373b 71b4 4f3e
000001a0: fc10 76bd a220 55be f9f3 9fbd de5a 6fbe
000001b0: 06d4 813e 7b3b 3dbe 4093 063c 54ec 593e
000001c0: 3a50 b83c 99da abbd 6621 813d 1487 17be
000001d0: 3f29 213d 0740 fa3d 6447 93bd 1dea b9bd
000001e0: a8a3 eebd cad3 df3d 5f25 5a3d 55c7 d9bc
000001f0: 7980 2a3c 8f1e 1ebd 4d4d 8e3c ccad 8a3d
00000200: bc9f 3ebd 6b5d 88bd ae4b 5d3e 9119 3e3d
00000210: ef1a 04be 4632 4d3e d331 77be 1832 e93d
00000220: b761 ccbd 825c c9bd 572a 8bbc f07f 97bc
00000230: f9ce 8dbd 03bd c63c 3a89 60bd c8c0 283e
00000240: 2e98 bf3c d19d f43d d20c 50bd c7a0 c5bd
00000250: 750e 39bc 760a 0b3e 30ed 703c 157d ccbd
00000260: 4076 32bd 1308 01bd 5d5c f23d 8522 13be
00000270: 28dc 34bd c8d7 1abe 2adb 0c3e 0fc7 093e
00000280: df1b 253e 0e2b e1bc 0498 353d eedf 9a3c
00000290: 05d7 873d 849b b63d 1e61 18bd 4c51 46bd
000002a0: 2377 6a3e fc77 163d dcce a8bd c102 3dbd
000002b0: 046c 6f3e d1de 07be 6c89 b8bd 6587 133e
000002c0: b0c5 c93c ebad a9bc e85b bebc 7990 b63d
000002d0: 1416 d73d a191 393e 2759 47be 7e53 003e
000002e0: 02ff 123e 4648 b2bd 7a40 323e eda8 1dbd
000002f0: 82a6 223e 23ab 88bd a4f9 393e 4a9e 9cbd
00000300: c79d d13d d496 f43d 6a94 03bd cc7d 61be
00000310: 76cb 30be a5f8 143e e334 f13c 256a 663e
00000320: b477 043d b2f5 ff3b b631 553c 4ebd dd3d
00000330: 2894 583d 69fc c93d ec15 e0bd 7c88 373c
00000340: be13 f9bd 1a4f 333d d949 6f3e 4495 cebd
00000350: b623 ec3d 59e4 d83d 69dd 1cbe f09b 7b3d
00000360: 6140 1a3e 7512 1ebd 6c35 f33c add7 ebbd
00000370: 9af1 0b3e 5f7a 30be 7793 10bd baa7 5d3e
00000380: 680e 043e a9d6 063e a256 1f3e 0073 0abe
00000390: 474d a7bd d5d5 153c 8d24 e93d 126e 71bd
000003a0: 5e47 a7bd 6093 13be 1b81 ed3d 14d5 05be
000003b0: 14f3 1bbe 169b aa3d c029 bd3d ebd1 e8bc
000003c0: f999 1f3d 549d 983d 63f4 163e 3f72 c93c
000003d0: f66d bebd b4a7 b33d 878c 9fbd d472 d1bb
000003e0: e7cc ff3d 7be0 fbbc 344f 46bc 7fcb f1bd
000003f0: 8c17 273e 8e68 b4bc c51f 4e3e 3983 803e
-0.018065646 -0.18366493 0.20169239 -0.23023245 -0.14890023 -0.032123048 -0.094072446 0.0824818
0.029351799 -0.25297904 0.20789714 -0.15167259 0.129034 -0.010920122 0.17801422 0.15886319
-0.14485899 0.21880941 -0.03351828 -0.103988856 -0.08780126 0.105212696 -0.05548158 -0.0019455202
-0.15168178 0.0063976743 -0.028928729 0.0077587483 -0.16217683 -0.047365196 0.0067951404 -0.093859985
0.20992696 -0.02581352 0.083374664 -0.14866872 -0.1482372 0.009656451 0.003035534 0.23008631
0.0076168636 -0.15744902 0.12287607 0.05967266 0.17997737 0.052519996 -0.009153726 -0.07008224
-0.0027638737 -0.018594796 0.07557565 0.009969069 -0.050913244 0.22994314 -0.14225067 0.168221
0.23945636 -0.086498246 0.123172164 0.09052631 -0.020423975 -0.17424938 -0.08076669 0.13432242
0.10643651 0.05770433 0.21712624 -0.050266933 -0.020362426 0.3201773 -0.039278127 0.28384128
-0.010171636 -0.09879701 0.1654463 -0.29125282 0.1659498 -0.2253923 0.058672924 0.08303182
0.088354 -0.11652812 0.07920911 -0.08150609 -0.17230016 0.07016088 0.020781627 -0.0013361038
-0.028881975 0.09226172 -0.057106357 -0.072134525 0.16961987 -0.038012005 -0.04644991 -0.12464001
0.081697255 -0.15265594 -0.078602284 -0.09314498 -0.15673515 0.12294665 0.0028017291 0.20283677
-0.06007479 -0.2081323 -0.07810206 -0.23374507 0.25357074 -0.18479721 0.008213818 0.21281558
0.022499193 -0.083913036 0.06305198 -0.14797622 0.039345976 0.122192435 -0.07191351 -0.09077857
-0.11652309 0.109290674 0.053258296 -0.026584307 0.010406607 -0.03860336 0.017370844 0.067714304
-0.046539053 -0.06658443 0.21610901 0.0464111 -0.129009 0.20038709 -0.241401 0.11386508
-0.09979575 -0.098320976 -0.016987963 -0.018493623 -0.069242425 0.02426005 -0.05481837 0.1647979
0.023387995 0.119441636 -0.050793476 -0.096498065 -0.011294951 0.1357821 0.014704987 -0.09984795
-0.043569803 -0.03150184 0.11834023 -0.14368637 -0.04415527 -0.15121377 0.1375548 0.13454841
0.16123913 -0.02748635 0.044334427 0.018905606 0.066328086 0.08916381 -0.037201993 -0.048417374
0.2289701 0.03673552 -0.0824258 -0.046145204 0.23381048 -0.13268591 -0.09010586 0.14407118
0.024630398 -0.020712813 -0.023237184 0.08914275 0.10502258 0.1812196 -0.19467603 0.1253185
0.1435509 -0.08705191 0.17407408 -0.03849118 0.1588383 -0.06673267 0.18161637 -0.07647379
0.10235172 0.11942831 -0.03212396 -0.22020644 -0.17265114 0.14547975 0.029444164 0.22501428
0.03234072 0.0078112716 0.01301234 0.10827123 0.052875668 0.098625965 -0.10941681 0.011201974
-0.12161969 0.04377661 0.23368014 -0.10087064 0.11530249 0.10590429 -0.15318836 0.06142801
0.15063621 -0.03859182 0.02968856 -0.11515746 0.13666382 -0.17234181 -0.035296883 0.21646014
0.1289612 0.13167824 0.15560392 -0.13520432 -0.08169036 0.00914522 0.11383925 -0.05894286
-0.08167909 -0.14411688 0.115968905 -0.13069564 -0.15229446 0.083303615 0.09236479 -0.02842041
0.0389652 0.07451883 0.14741664 0.02459061 -0.09298317 0.08772221 -0.07790475 -0.0063918624
0.12490254 -0.030746689 -0.012103844 -0.11806392 0.16317576 -0.022022512 0.20129307 0.25100115

lstm.weight_hh_l0 f4 [128, 32]
00000000: 52ef 663d 33a5 a73c 0044 0dbe 2c31 413d
00000010: 8818 16be af44 813d 4f78 123e 7db4 283e
00000020: ee14 41be ecc1 8fbc 4a95 8f3d dcf6 5dbc
00000030: 7566 483c 5eb4 023d 7ab4 9b3c 101c 44bd
00000040: b67d 953d aeab 78bc e023 bf3b c4c2 5d3d
00000050: acb4 883d 88e7 2f3c 9ba0 17bd 548f 55be
00000060: 3da0 dabd 2e71 4b3c ec62 c73d 0942 43be
00000070: 0f05 fd3d 420b b3bd e22f 29bc 5afb c53d
00000080: 71f8 e63c 86e7 ac3d 138c 2b3e 499d e3bd
00000090: 64de 253e 0a69 9b3d afe9 ddbd c8ef 9c3d
000000a0: 41ba 003e 61c5 49be 39ab aebd bc75 c2bd
000000b0: aee8 13be 98eb 82bd e6f9 afbd 3015 d63c
000000c0: 25ee 9dbd d739 b03d 4d58 c1bd 824e 1a3e
000000d0: 7365 01be 0fff c8bc 0bbc 2b3d ce30 15be
000000e0: bc79 6a3d 8437 013e 5e2c a1bd eab7 433b
000000f0: 83ae f23d 5e89 7e3d 9748 233e cc5a 68be
00000100: ec7d f8bd 6222 5dbe 4fa3 38be e17f 42be
00000110: dd10 c1bd afa5 6e3d 1702 043c c93c 413e
00000120: 5fda 67bd 6bac d6bd 09d9 18bc af86 2e3e
00000130: eb7f b13d e974 68be fa85 b43d 5951 1dbe
00000140: 2e9c 1b3e df91 acbc 4739 36bd cdca 133c
00000150: c759 0abe f6bf babd 4542 d53c d872 963d
00000160: adc1 edbc 717e 27bd 04f2 5dbe 3564 763d
00000170: 759b f23c ef7c 473e 8f23 603e 12a7 d93d
00000180: 57cb 2b3c 1c3f 973c 0f8d 393d 4088 8b3c
00000190: af58 533c 05a6 f93d b56a b8bc dc77 0cbe
000001a0: e342 0dbe d391 113e df50 31be 6285 3abc
000001b0: 08e2 233e 87ba 9cbd 3b1d 25be 59d4 c33d
000001c0: fff2 a6bd 4f6b 14bc 74b3 063e 865b 6b3d
000001d0: da02 febc 7d38 e33d 4894 c33d 2205 d4bd
000001e0: c016 68be 25d9 313d 1ff7 e0bd 4ccb c03d
000001f0: 6bb9 0fbc 8a4e 4d3e 6924 67ba e1b4 f5bc
00000200: ac86 00bb 891e 85bd 5fc9 9abe aa8f 8dbe
00000210: 9e8a 1d3e 7f73 cc3d be90 aebc 0d46 c63d
00000220: ab0c 583b 99e1 fc3b b8f2 87bd 0a01 813d
00000230: 08f1 883e 1dd5 86bd fe74 053e d131 efbd
00000240: 4d78 0c3d 5a8f 8abe dddc 903e 307e 663e
00000250: bc99 80bd 2e7b c3bd 24b6 b7bc a13c 7abe
00000260: 3400 143e 7e0e e53c 42db 00be fa4d a5bd
00000270: 523d d5bd 9db3 013e 2b14 573e 6d2c b5bc
00000280: 8606 56be 17a9 e7bd 6657 44bd 1e38 8dbd
00000290: 6ee1 05be fdbe 6c3d 44d1 113e 9e18 7abd
000002a0: 8e8c 09be 57ee b6bb d3fc bd3c 5da4 2a3e
000002b0: 1622 debd 4fc5 ff3b 7d16 98bd 59ec 8cbd
000002c0: 6eb9 b1bd 0ed3 b83d ad16 e23d d703 163e
000002d0: 3a8d 3abe ba1c 073d ed3c 413d 8f52 983d
000002e0: 8b8c 34be 59e9 0c3e 005d 1abe 3d23 9a3d
000002f0: bd80 043e 59b6 d03d a3e1 1f3c 9bba 8d3d
00000300: 54ef 2f3d d3dd cdbd 635f 75be 3999 f93c
00000310: 6430 163d 05b7 013e 4f8c b5bd b463 5b3e
00000320: 3450 4b3d 79cf 623d f5b7 92bc 7b88 643e
00000330: 458c 80bd d24b 72be 3883 4e3e f380 5abe
00000340: dfa9 11bc 98b7 08be 71b3 c53c be4d e23d
00000350: bc5e 60be 6755 1dbe 1dbb 12be 928b 2c3d
00000360: 7b3c 0dbd 0df9 413e 907d c73d c06f b7bc
00000370: 4549 b43c b6de 183e 8595 21bc 0ed3 34be
00000380: c89d 353c 4588 43be fd0b 59bc adbe ec3d
00000390: 8e41 153e 184c e23d 11b8 2bbe cee9 2dbd
000003a0: 5082 733e a4af e93d 342a 8dbd 3627 bd3d
000003b0: e133 60bd fbe5 40bd 41a3 a23d 4f56 4ebe
000003c0: 186a 433e 37cd 77ba ccf0 cabd d1e5 723d
000003d0: 306c 9a3d de70 d53d 4349 20be 5b70 b93d
000003e0: a389 023e bfbf 24bd 3098 a7bd 1d47 953d
000003f0: eeb5 eabd 372c 623e 2ead c13d fe94 d83b
0.056380577 0.020464515 -0.13795471 0.047166035 -0.14657795 0.063119285 0.14303707 0.16475101
-0.1885564 -0.017548524 0.070108965 -0.013547625 0.012231459 0.031910293 0.019006956 -0.047878325
0.07299368 -0.01517765 0.005833134 0.05414082 0.066750854 0.010736354 -0.0370184 -0.20855457
-0.10675094 0.012417121 0.09735665 -0.19068159 0.123544805 -0.08742382 -0.010326358 0.09667082
0.028194638 0.08442597 0.16752653 -0.11113984 0.16198117 0.07588394 -0.10835587 0.07662922
0.1257105 -0.197042 -0.08528752 -0.09495112 -0.14444229 -0.06392592 -0.08592586 0.02613315
-0.07711438 0.08604782 -0.0944067 0.15069011 -0.12636356 -0.024535684 0.04192738 -0.14569399
0.057245 0.12618834 -0.078697905 0.002986426 0.11849692 0.062142722 0.1594566 -0.22690886
-0.12133393 -0.21595147 -0.18031047 -0.18994094 -0.094270445 0.058263477 0.008057139 0.18870844
-0.05660474 -0.10482105 -0.009329089 0.17043565 0.086669765 -0.22700848 0.088146165 -0.15363063
0.15196297 -0.02106565 -0.044488218 0.009020519 -0.1351081 -0.09118645 0.026032576 0.073461235
-0.029023016 -0.04089207 -0.21674353 0.06015416 0.029615143 0.19481252 0.21888565 0.10627569
0.010485492 0.01846271 0.04530054 0.017032743 0.012899562 0.12189869 -0.02251182 -0.13717598
-0.13795047 0.14215784 -0.17316006 -0.01138434 0.16004193 -0.07652765 -0.16124432 0.095619865
-0.081518166 -0.0090587875 0.13154393 0.05746033 -0.03100722 0.11094759 0.09549767 -0.103525415
-0.22664928 0.043419976 -0.109846346 0.09413776 -0.008772234 0.20049492 -0.0008817376 -0.029993476
-0.001961152 -0.06499965 -0.3023176 -0.2764867 0.1538491 0.09982967 -0.021309253 0.0968133
0.0032966535 0.007717323 -0.06638092 0.06299026 0.26746392 -0.06583617 0.1303291 -0.116794236
0.034294415 -0.27062494 0.28293505 0.22509074 -0.062793225 -0.09544979 -0.022425719 -0.2443719
0.14453202 0.027961012 -0.1258364 -0.080715135 -0.104120865 0.12666173 0.21003787 -0.02211591
-0.20900926 -0.11311548 -0.047934912 -0.06895469 -0.13074276 0.057799328 0.14239985 -0.061058633
-0.13432524 -0.0055826115 0.023191845 0.16664262 -0.10846345 0.0078055034 -0.07426164 -0.06881017
-0.08677946 0.090246305 0.11039481 0.14649902 -0.18217936 0.03298638 0.047177244 0.07437622
-0.17631738 0.1376089 -0.15074539 0.075262524 0.12939735 0.1019103 0.009758386 0.06920358
0.04295285 -0.10052075 -0.23962168 0.03046857 0.036667243 0.12667473 -0.08864652 0.21424752
0.049637035 0.055373643 -0.017909983 0.22317688 -0.06276754 -0.23661736 0.20167243 -0.21338253
-0.008890598 -0.13351285 0.024133416 0.110499844 -0.21911138 -0.1536461 -0.1432919 0.042125292
-0.034481507 0.18942662 0.09740746 -0.022392154 0.022007594 0.14928707 -0.009862308 -0.17658636
0.011084981 -0.19094951 -0.013247487 0.11559806 0.14575788 0.1104967 -0.16769435 -0.0424593
0.23780179 0.11410454 -0.06892815 0.092359945 -0.054736976 -0.047094326 0.079412945 -0.20150112
0.1908344 -0.00094528816 -0.099092096 0.0593012 0.075401664 0.10421918 -0.15652947 0.09054633
0.12747817 -0.040221926 -0.08183324 0.072889544 -0.114604816 0.22087179 0.094568595 0.006609558

lstm.bias_ih_l0 f4 [128]
00000000: fb4f babd b389 65be 1481 32be 8dae 15be
00000010: 9e9a 9ebd c444 bd3d 5055 eb3c b46f c33d
00000020: fe25 29be f2aa 70bd fcf0 a3bd 9562 90bc
00000030: 7eb1 093d bba2 aebd 75a3 3fbd 464a 4ebe
00000040: 18e3 4cbd f0e4 46bd 8bb9 e5bd 17be 2f3d
00000050: 9790 d6bd 4234 d3bd d0d4 c53d 8608 b0bd
00000060: 1db6 873d d79b 26be 4d4f 573c 16ac 56be
00000070: 430e 98bc acb1 49be f44a 6ebd 990c 00be
00000080: 0a98 ffbc b71b b93b 2d74 e2bd 37f8 17be
00000090: c3a8 e1bd 780e 1bbd acc6 ccbd 11f7 f6bd
000000a0: 6357 1bbd 28c2 3bbe 6a94 21be 9fc9 19be
000000b0: 969c 6b3d 0763 c83d 1a12 52bd ac3f 47be
000000c0: 69db b0bd fda3 e1bd 8010 0cbe 7432 043d
000000d0: b004 04be 2791 c8bd de0f e83d 49f8 3dbe
000000e0: 362b 79be 2217 243e 7eb4 17be 79e5 b93d
000000f0: 37d5 64bd 79af 893d e61c 2e3d b6c3 22bd
00000100: 87da db3c a1bc a63d 55d9 28bc ff56 fabd
00000110: 4757 c13d 6f5a a03c 9a95 3ebc 9356 d6bd
00000120: 5501 0cbe 9909 e0bd 8133 24bd 214a 6ebd
00000130: b316 b33d 2dda b53d 53c6 b33c 569b 87bd
00000140: 6415 a1bd 8447 b4bd daee 5c3d aa13 bfbd
00000150: f3b7 283e 337e ed3d 1180 8e3d a528 b43d
00000160: f485 9d3b d1f0 e5bd daca fabc b623 07bd
00000170: c8fb 8b3d 6c63 c5bd 80c5 f1bd 2c6b 043e
00000180: 2c58 07be 0189 dcbd c625 66be 7221 3cbe
00000190: 39e0 b5bd d088 40be c0a2 23be 0fa6 4ebb
000001a0: 792b bfbd 6f5d 6b3d effd b8bd 67d5 e2bd
000001b0: 6d14 cc3d a1b1 043e a9dc 173c 7169 29be
000001c0: af52 ad3d 8417 56be 3865 29be d6d0 3bbc
000001d0: 2fc7 073b 9d3a 4d3d 6e85 adbd 24d7 1fbe
000001e0: 64dc f5bd 01a4 19be c7cc 51be 69e6 573d
000001f0: ba70 f9bd 3a06 66be b194 d1bd 8e1b a0bd
-0.09097286 -0.2241581 -0.17432052 -0.14617367 -0.07744335 0.092416316 0.028727204 0.0954279
-0.16518399 -0.058756776 -0.080049485 -0.017625133 0.033616535 -0.08527132 -0.046786744 -0.2014552
-0.05002126 -0.048558176 -0.1121703 0.042905893 -0.10476797 -0.10312702 0.096597314 -0.08595376
0.06626532 -0.16270386 0.013141465 -0.20964083 -0.018561488 -0.19696683 -0.05817695 -0.12504806
-0.031200428 0.005649056 -0.11057315 -0.1484078 -0.11018517 -0.037855595 -0.09998831 -0.12058843
-0.037925135 -0.18335783 -0.15779272 -0.15018319 0.05752238 0.09784513 -0.051286794 -0.19457883
-0.08635599 -0.110176064 -0.13678169 0.03227468 -0.12892413 -0.097933106 0.113311514 -0.18551745
-0.2433289 0.1602445 -0.14814946 0.090769716 -0.0558674 0.06722922 0.04250803 -0.039737426
0.0268376 0.08141447 -0.010305722 -0.122236244 0.09440475 0.019574372 -0.0116323475 -0.104657315
-0.13672383 -0.109393306 -0.04008818 -0.058176164 0.08744564 0.08879504 0.021945154 -0.06621425
-0.07865408 -0.08802703 0.053938724 -0.093299225 0.16476421 0.11596336 0.069580205 0.08796815
0.004807228 -0.11227573 -0.030614305 -0.03299304 0.06835133 -0.09638104 -0.11805248 0.12931508
-0.13217229 -0.10768319 -0.22475347 -0.18372133 -0.08880658 -0.1880219 -0.15980053 -0.0031532084
-0.093344636 0.057462152 -0.09032809 -0.110758595 0.099648334 0.12958385 0.009268918 -0.16544129
0.08463036 -0.20907408 -0.16542518 -0.011463365 0.0020718088 0.050104726 -0.08472715 -0.15609413
-0.12004927 -0.15003969 -0.20488273 0.05270997 -0.12179704 -0.22463313 -0.10233439 -0.07817756

lstm.bias_hh_l0 f4 [128]
00000000: 8d2d 39bd 8cd7 dabb 5c67 6ebe 0d3b 4abd
00000010: fad2 fcbc 6338 f43c f8e4 1c3c 10ea 08be
00000020: e620 fcbd 9fa2 1bbe c035 50be 1b0c 733c
00000030: 1e95 683d 1aba 8b3d cf84 be3d 70e1 713d
00000040: 3f87 843d c129 08be 5a64 d43d f89a dbbd
00000050: d67b 0cbe f36f 82bd d3f4 1f3d e4cf 19bd
00000060: 2592 733d 087c c4bd e858 4dbe ffbb e63d
00000070: 2777 4abe f462 6cbe 642e 683d 70d0 4ebc
00000080: 8073 32be 1eb7 8a3d e8c4 d2bd 939e bfbb
00000090: e6f1 993c f267 e33d 0131 5bbe 9d6a 5cbe
000000a0: 2472 443d 8b0d b33c cd93 673c a97c e13d
000000b0: 0f27 afbd 1fab b83d 0365 9f3d 4f83 10be
000000c0: 8c35 50be f255 3fbb 7b41 cfbd e286 58be
000000d0: 1be1 4d3c b63f 99bd 8320 4b3d 3548 26be
000000e0: 959e bebc 5ee5 c1bd 9bf3 2f3d 9ce6 a33d
000000f0: f688 dbbd 4422 51be 8344 1fbe 3d28 d4bd
00000100: 3508 cfbb 7ed5 70bd 3952 e23c 41a5 353e
00000110: 659b bcbd 5120 c9bc 5f3f f4bc 8c6a bb3b
00000120: e481 233e 58ef fb3d abba b13d 7e48 cabd
00000130: 8347 0fbe 963c 9b3c 9644 9cbc a587 0e3d
00000140: 05bb 253d 35b8 c03d 0a82 54bd 68d1 8e3d
00000150: 45cc f1bd 72f5 81bd 6409 f4bc 3d0d a33d
00000160: 6d36 dbbc 2694 99bc 5dea 3d3d 2658 553d
00000170: 1fbe 90bc d8db a1bd 3049 953d 777b 04bd
00000180: 1b3e b83d 1769 14bd 8aa7 cd3d 55af 40be
00000190: d810 85bd 6720 b6bc e129 e63d b1a3 1cbe
000001a0: d401 62be 1f55 bfbd 1006 b43d 3d34 26be
000001b0: f137 a23d 1fee a83d f3b3 a0bc 85f2 15be
000001c0: 6b2f 483d 1902 233d e4fb 853d dc1c 95bd
000001d0: bcb5 14be 4e2b 72bd 4b46 1fbe c81b 9dbd
000001e0: 383e febd bc65 06be 09e4 983d dc1c b1bd
000001f0: ac3c 7f3d a7d9 1bbe 50e1 24bd 546b cc3d
-0.045209456 -0.006678527 -0.23281616 -0.04937272 -0.03086232 0.029812044 0.009576075 -0.13370538
-0.123109624 -0.15198754 -0.20333004 0.014834429 0.056782834 0.068226054 0.09302675 0.059052885
0.06471109 -0.13297178 0.10370703 -0.10722917 -0.13719115 -0.06369009 0.039051842 -0.037551776
0.059465546 -0.095939696 -0.20053446 0.11266326 -0.19772016 -0.23084623 0.056684867 -0.012622938
-0.17426872 0.06773208 -0.10291463 -0.005847761 0.018792104 0.1110381 -0.21405412 -0.21525045
0.047960415 0.021857044 0.01413436 0.11010105 -0.08552372 0.09017014 0.07782938 -0.1411259
-0.20332927 -0.0029195515 -0.10119911 -0.21145204 0.012565876 -0.07482855 0.049591552 -0.16238482
-0.023268977 -0.094675764 0.04295693 0.080029696 -0.107194826 -0.20423228 -0.15553479 -0.10359237
-0.006318117 -0.058797352 0.027627097 0.1773882 -0.09209327 -0.024551542 -0.029815374 0.0057194885
0.15967518 0.123015106 0.08678182 -0.09877108 -0.13992123 0.018949788 -0.019075673 0.03479733
0.04046156 0.09410135 -0.051881827 0.06973535 -0.118065394 -0.06345643 -0.029789634 0.079615094
-0.02675935 -0.0187474 0.046366084 0.052086018 -0.017668782 -0.0790326 0.0728935 -0.032344308
0.08996221 -0.036233034 0.10041721 -0.18816884 -0.06497353 -0.022232248 0.112384565 -0.15296818
-0.2207101 -0.093424074 0.08790219 -0.16230865 0.07920826 0.08248543 -0.019617056 -0.14643295
0.048873346 0.039796922 0.06542185 -0.07280895 -0.14522451 -0.05912333 -0.15554158 -0.076713145
-0.12414211 -0.13124746 0.07465369 -0.086480826 0.06231372 -0.15219747 -0.040253937 0.09981409

linear.weight f4 [1, 32]
00000000: 14e5 963d 7b24 23bd c2bc 393d dc4d a03d
00000010: 5ac8 31bd 5ac7 c9bd 467a c83b 400a db3d
00000020: 3739 1d3d 7894 bcbc a496 513c c7e5 a1bc
00000030: 7442 e3bd 02e6 fe3d ff75 d73d 711a 123d
00000040: 72da 9e3d cd00 7c3d 5ede 98bd 77bc df3d
00000050: 36d0 fe3d 3c7b be3c 6b04 a23c 2670 7739
00000060: bd37 0f3d 74f0 15be 7c1f 2a3d dee4 f23d
00000070: 2843 c9bc e41e 54bc 4f3f 013e 8768 80bd
0.07367912 -0.039829712 0.04534603 0.078273505 -0.04340396 -0.098524764 0.0061180918 0.106953144
0.038384642 -0.023020014 0.012792263 -0.019762887 -0.11096659 0.12446214 0.10520553 0.035669748
0.07756509 0.0615242 -0.07464288 0.10924619 0.12442057 0.023252122 0.019777497 0.00023597534
0.034965266 -0.14642507 0.041533932 0.11860059 -0.024568155 -0.012946818 0.12621807 -0.06269937
