simple_gcn_model.pth (torch, 2392 bytes, 3 tensors)

conv1.bias f4 [16]
000000 6c a4 8c 3d 00 00 00 00 0b 9f 38 bd 00 00 00 00
       0.068672985 0.0 -0.04507355 0.0
000010 00 00 00 00 21 2c 8a 3d 00 00 00 00 72 7d 2b bd
       0.0 0.06746698 0.0 -0.04186768
000020 10 8c 42 bd 86 69 30 bd 00 00 00 00 00 00 00 00
       -0.047496855 -0.043069385 0.0 0.0
000030 00 00 00 00 24 04 3d bd 4e 8b 13 bd b4 2e 8e 3d
       0.0 -0.046146527 -0.036021523 0.06942502

conv1.lin.weight f4 [16, 1]
000000 7e 75 b1 3e 2a 6d 1e be 46 ad 41 3e bf 6f 23 be
       0.34659952 -0.1547133 0.18913755 -0.15960597
000010 71 14 ff be 8d 1b dd 3e 4b 1f c8 be a6 58 89 3e
       -0.49820283 0.43185082 -0.39086375 0.26825446
000020 18 8b a6 3e 27 21 e6 3d 66 49 a3 be a1 c1 cf be
       0.32527995 0.11236792 -0.31891936 -0.40577415
000030 c4 bd f2 be 36 6b 62 3e 4e 61 45 bc d1 ae 1c 3e
       -0.47410405 0.2211121 -0.012047125 0.15301062

lin.weight f4 [1, 16]
000000 ce 76 e9 3d 20 5c 05 be fc 60 99 bd c8 28 f7 bd
       0.11399613 -0.13023424 -0.074892014 -0.12068325
000010 bc 5b 97 bd 7f 5c 29 3e 50 69 8d bd aa c0 ad 3c
       -0.07390544 0.1653919 -0.069048524 0.021210033
000020 df e8 03 be 09 82 34 be 78 b8 25 be b8 9b fb bd
       -0.12881802 -0.1762773 -0.1618365 -0.1228556
000030 de f2 1f be fe ec 21 be 3c a1 33 bc ab f0 b7 3d
       -0.1561999 -0.15813062 -0.010963734 0.08981451
